…
            "text/plain": [
              "===================================================================================================================\n",
              "Layer (type:depth-idx)                   Input Shape               Output Shape              Param #\n",
              "===================================================================================================================\n",
              "HittersModel                             [175, 19]                 [175]                     --\n",
              "├─Flatten: 1-1                           [175, 19]                 [175, 19]                 --\n",
              "├─Sequential: 1-2                        [175, 19]                 [175, 1]                  --\n",
              "│    └─Linear: 2-1                       [175, 19]                 [175, 50]                 1,000\n",
              "│    └─ReLU: 2-2                         [175, 50]                 [175, 50]                 --\n",
              "│    └─Dropout: 2-3                      [175, 50]                 [175, 50]                 --\n",
              "│    └─Linear: 2-4                       [175, 50]                 [175, 1]                  51\n",
              "===================================================================================================================\n",
              "Total params: 1,051\n",
              "Trainable params: 1,051\n",
              "Non-trainable params: 0\n",
              "Total mult-adds (Units.MEGABYTES): 0.18\n",
              "===================================================================================================================\n",
…
      },
      "outputs": [
        {
          "output_type": "execute_result",
          "data": {
            "text/plain": [
              "===================================================================================================================\n",
              "Layer (type:depth-idx)                   Input Shape               Output Shape              Param #\n",
              "===================================================================================================================\n",
              "MNISTModel                               [256, 1, 28, 28]          [256, 10]                 --\n",
              "├─Sequential: 1-1                        [256, 1, 28, 28]          [256, 10]                 --\n",
              "│    └─Sequential: 2-1                   [256, 1, 28, 28]          [256, 256]                --\n",
              "│    │    └─Flatten: 3-1                 [256, 1, 28, 28]          [256, 784]                --\n",
              "│    │    └─Linear: 3-2                  [256, 784]                [256, 256]                200,960\n",
              "│    │    └─ReLU: 3-3                    [256, 256]                [256, 256]                --\n",
              "│    │    └─Dropout: 3-4                 [256, 256]                [256, 256]                --\n",
              "│    └─Sequential: 2-2                   [256, 256]                [256, 128]                --\n",
              "│    │    └─Linear: 3-5                  [256, 256]                [256, 128]                32,896\n",
              "│    │    └─ReLU: 3-6                    [256, 128]                [256, 128]                --\n",
              "│    │    └─Dropout: 3-7                 [256, 128]                [256, 128]                --\n",
              "│    └─Linear: 2-3                       [256, 128]                [256, 10]                 1,290\n",
              "===================================================================================================================\n",
              "Total params: 235,146\n",
              "Trainable params: 235,146\n",
              "Non-trainable params: 0\n",
              "Total mult-adds (Units.MEGABYTES): 60.20\n",
              "===================================================================================================================\n",
…
          "base_uri": "https://localhost:8080/"
        }
      },
      "outputs": [
        {
          "data": {
            "text/plain": [
              "===================================================================================================================\n",
              "Layer (type:depth-idx)                   Input Shape               Output Shape              Param #\n",
              "===================================================================================================================\n",
              "CIFARModel                               [128, 3, 32, 32]          [128, 100]                --\n",
              "├─Sequential: 1-1                        [128, 3, 32, 32]          [128, 256, 2, 2]          --\n",
              "│    └─BuildingBlock: 2-1                [128, 3, 32, 32]          [128, 32, 16, 16]         --\n",
              "│    │    └─Conv2d: 3-1                  [128, 3, 32, 32]          [128, 32, 32, 32]         896\n",
              "│    │    └─ReLU: 3-2                    [128, 32, 32, 32]         [128, 32, 32, 32]         --\n",
              "│    │    └─MaxPool2d: 3-3               [128, 32, 32, 32]         [128, 32, 16, 16]         --\n",
              "│    └─BuildingBlock: 2-2                [128, 32, 16, 16]         [128, 64, 8, 8]           --\n",
              "│    │    └─Conv2d: 3-4                  [128, 32, 16, 16]         [128, 64, 16, 16]         18,496\n",
              "│    │    └─ReLU: 3-5                    [128, 64, 16, 16]         [128, 64, 16, 16]         --\n",
              "│    │    └─MaxPool2d: 3-6               [128, 64, 16, 16]         [128, 64, 8, 8]           --\n",
              "│    └─BuildingBlock: 2-3                [128, 64, 8, 8]           [128, 128, 4, 4]          --\n",
              "│    │    └─Conv2d: 3-7                  [128, 64, 8, 8]           [128, 128, 8, 8]          73,856\n",
              "│    │    └─ReLU: 3-8                    [128, 128, 8, 8]          [128, 128, 8, 8]          --\n",
              "│    │    └─MaxPool2d: 3-9               [128, 128, 8, 8]          [128, 128, 4, 4]          --\n",
              "│    └─BuildingBlock: 2-4                [128, 128, 4, 4]          [128, 256, 2, 2]          --\n",
              "│    │    └─Conv2d: 3-10                 [128, 128, 4, 4]          [128, 256, 4, 4]          295,168\n",
              "│    │    └─ReLU: 3-11                   [128, 256, 4, 4]          [128, 256, 4, 4]          --\n",
              "│    │    └─MaxPool2d: 3-12              [128, 256, 4, 4]          [128, 256, 2, 2]          --\n",
              "├─Sequential: 1-2                        [128, 1024]               [128, 100]                --\n",
              "│    └─Dropout: 2-5                      [128, 1024]               [128, 1024]               --\n",
              "│    └─Linear: 2-6                       [128, 1024]               [128, 512]                524,800\n",
              "│    └─ReLU: 2-7                         [128, 512]                [128, 512]                --\n",
              "│    └─Linear: 2-8                       [128, 512]                [128, 100]                51,300\n",
              "===================================================================================================================\n",
              "Total params: 964,516\n",
              "Trainable params: 964,516\n",
              "Non-trainable params: 0\n",
              "Total mult-adds (Units.GIGABYTES): 2.01\n",
              "===================================================================================================================\n",
…
